…
},"colab":{"base_uri":"https://localhost:8080/","height":521}},"source":["model= create_model()\n","model.summary() # 모델에 대한 요약 출력해줌"],"execution_count":26,"outputs":[{"output_type":"stream","text":["Model: \"model\"\n","_________________________________________________________________\n","Layer (type)                 Output Shape              Param #   \n","=================================================================\n","input_1 (InputLayer)         [(None, 128, 128, 1)]     0         \n","_________________________________________________________________\n","conv2d (Conv2D)              (None, 128, 128, 32)      320       \n","_________________________________________________________________\n","max_pooling2d (MaxPooling2D) (None, 64, 64, 32)        0         \n","_________________________________________________________________\n","conv2d_1 (Conv2D)            (None, 64, 64, 64)        18496     \n","_________________________________________________________________\n","max_pooling2d_1 (MaxPooling2 (None, 32, 32, 64)        0         \n","_________________________________________________________________\n","conv2d_2 (Conv2D)            (None, 32, 32, 128)       73856     \n","_________________________________________________________________\n","max_pooling2d_2 (MaxPooling2 (None, 16, 16, 128)       0         \n","_________________________________________________________________\n","flatten (Flatten)            (None, 32768)             0         \n","_________________________________________________________________\n","dense (Dense)                (None, 256)               8388864   \n","_________________________________________________________________\n","dense_1 (Dense)              (None, 7)                 1799      \n","=================================================================\n","Total params: 8,483,335\n","Trainable params: 8,483,335\n","Non-trainable params: 0\n","_________________________________________________________________\n"],"name":"stdout"}]},{"cell_type":"code","metadata":{"id":"qiekS00j8CjJ","colab_type":"code","outputId":"458f4a5a-504f-418c-c99e-dcbecf8656bb","executionInfo":{"st
…
